…
Content_TR:: __init__ d_model: 512 , nhead: 2 , num_encoder_layers: 3 , dim_feedforward: 2048 , dropout: 0.1 , activation: relu , normalize_before: True
[TransformerDecoderLayer]: d_model=512, nhead=8, dim_feedforward=2048, dropout=0.1, activation=relu, normalize_before=True
TransformerDecoder:: __init__ decoder_layer: TransformerDecoderLayer(
  (self_attn): MultiheadAttention(
    (out_proj): NonDynamicallyQuantizableLinear(in_features=512, out_features=512, bias=True)
  )
  (multihead_attn): MultiheadAttention(
    (out_proj): NonDynamicallyQuantizableLinear(in_features=512, out_features=512, bias=True)
  )
  (linear1): Linear(in_features=512, out_features=2048, bias=True)
  (dropout): Dropout(p=0.1, inplace=False)
  (linear2): Linear(in_features=2048, out_features=512, bias=True)
  (norm1): LayerNorm((512,), eps=1e-05, elementwise_affine=True)
  (norm2): LayerNorm((512,), eps=1e-05, elementwise_affine=True)
  (norm3): LayerNorm((512,), eps=1e-05, elementwise_affine=True)
  (dropout1): Dropout(p=0.1, inplace=False)
  (dropout2): Dropout(p=0.1, inplace=False)
  (dropout3): Dropout(p=0.1, inplace=False)
) , num_layers: 2 , norm: LayerNorm((512,), eps=1e-05, elementwise_affine=True) , return_intermediate: True
TransformerDecoder:: __init__ decoder_layer: TransformerDecoderLayer(
  (self_attn): MultiheadAttention(
    (out_proj): NonDynamicallyQuantizableLinear(in_features=512, out_features=512, bias=True)
  )
  (multihead_attn): MultiheadAttention(
    (out_proj): NonDynamicallyQuantizableLinear(in_features=512, out_features=512, bias=True)
  )
  (linear1): Linear(in_features=512, out_features=2048, bias=True)
  (dropout): Dropout(p=0.1, inplace=False)
  (linear2): Linear(in_features=2048, out_features=512, bias=True)
  (norm1): LayerNorm((512,), eps=1e-05, elementwise_affine=True)
  (norm2): LayerNorm((512,), eps=1e-05, elementwise_affine=True)
  (norm3): LayerNorm((512,), eps=1e-05, elementwise_affine=True)
  (dropout1): Dropout(p=0.1, inplace=False)
  (dropout2): Dropout(p=0.1, inplace=False)
  (dropout3): Dropout(p=0.1, inplace=False)
) , num_layers: 2 , norm: LayerNorm((512,), eps=1e-05, elementwise_affine=True) , return_intermediate: True
[TB] writing to: Saved/English_CASIA/flow_run-20250922_151058/tboard
/home/jinsu0000/anaconda3/envs/exp-sdt/lib/python3.8/site-packages/torchvision/models/_utils.py:208: UserWarning: The parameter 'pretrained' is deprecated since 0.13 and may be removed in the future, please use 'weights' instead.
…
